outputs/forecast_model.tflite (tflite, 2044 bytes, 3 tensors)

sequential/dense/BiasAdd/ReadVariableOp f4 [12]
00000000: afca 01be c7de 3d3f f340 123f df7c 3bbd
00000010: 7377 57be 25df 433e 923f 4c3e 215d 613f
00000020: 10ba 80bd e6da ffbe 2cc1 81be 4b36 a4bd
-0.12674974 0.74168056 0.57130355 -0.045773383 -0.2104166 0.19128092 0.19946125 0.8803273
-0.062854886 -0.49971694 -0.2534269 -0.08018168

sequential/dense/MatMul f4 [12, 6]
00000000: 711a 0abc e61a 943e f2d3 1cbf ef80 113f
00000010: 1223 3d3f ddb0 043f f455 693f 3f78 a33e
00000020: f9bb 123f 3888 0f3e 0107 b7be 73e1 3d3e
00000030: 8986 403f ab83 f93e 635c 813d ff54 93bd
00000040: 7ef4 843c 5170 02bc d4ab b0be a226 8ebe
00000050: 615a cd3b 26be a13e 683b 903e c9d7 433f
00000060: 12f9 a33e 21aa 293e f271 e23d 5133 3d3d
00000070: 910b 99be aca4 0e3f cb80 fdbe 826f 02bf
00000080: f203 b1be ebe1 793d 91b1 0cbf e718 033f
00000090: 66ee fabe a150 e33d 7c28 cabe 97de 41bd
000000a0: 50b8 f5be 6856 063f 4b28 cc3e e7a4 8e3f
000000b0: acef 1f3f 44da 93bb 2283 00bf 613b ec3e
000000c0: c4ed 42bd 4032 643e 1090 e0bd 22cd 423f
000000d0: 18dc ad3e 3392 763e 08e7 5dbd 1813 eebe
000000e0: 07b2 d3be a885 a0be bc11 0a3f 848a 4fbe
000000f0: 7f0a 92bd c8b6 b7bd c873 a3bd 2cc9 8b3e
00000100: 270d 1bbf b029 f8be 4214 28be 4e37 f7bd
00000110: 8cd9 403e da85 94be 20f7 ef3e ea26 2b3f
-0.008429156 0.28926772 -0.612609 0.5683736 0.7388164 0.5183237 0.9114678 0.31927678
0.57318074 0.14016807 -0.3574753 0.18543033 0.75205284 0.48733267 0.063164495 -0.07193946
0.016229864 -0.007961349 -0.34506094 -0.2776385 0.0062668775 0.31590384 0.28170323 0.76501137
0.32025963 0.16568805 0.110568896 0.046191517 -0.29891637 0.5572002 -0.49512324 -0.509514
-0.34573323 0.061006468 -0.54958445 0.5120987 -0.4901001 0.11099363 -0.39484012 -0.04733142
-0.47992182 0.52475595 0.3987449 1.1144074 0.62475085 -0.0045121033 -0.5020009 0.46139053
-0.047590032 0.22284794 -0.10964978 0.7609426 0.3395698 0.24079208 -0.054175407 -0.46498942
-0.41346762 -0.31351972 0.5393331 -0.20267683 -0.07130908 -0.0897041 -0.07981068 0.2730192
-0.60566944 -0.48469305 -0.16413978 -0.120710954 0.18832988 -0.2900837 0.4686823 0.66856253

sequential/dense_1/MatMul f4 [1, 12]
00000000: 2bad 793e ea80 d2bf 88ae 42bf 234b 833e
00000010: 97e1 f5bb 3353 843e ce45 eb3e fe0f c1bf
00000020: 406a a43e 1afa 28bf d9bb 9b3e 381c 323f
0.24382465 -1.6445591 -0.76047564 0.25643262 -0.007503699 0.25844726 0.45951694 -1.5083005
0.32112312 -0.66006625 0.30416754 0.6957431
