outputs/forecast_model.tflite (tflite, 2044 bytes, 3 tensors)

sequential/dense/BiasAdd/ReadVariableOp f4 [12]
000000 a9 15 4a 3f 6d 10 a9 3e 64 7b 23 bf d7 92 05 3e
       0.789393 0.33020344 -0.63860154 0.13044296
000010 c0 72 24 3f fc af 23 3f e4 75 2d 3f 52 a5 fa 3e
       0.64237595 0.63940406 0.6775801 0.48954254
000020 86 ae fa be e4 9f 4a bf e9 e6 63 3e aa b6 97 3e
       -0.48961276 -0.79150224 0.22256054 0.2963155

sequential/dense/MatMul f4 [12, 6]
000000 e2 77 41 3e 02 c7 73 3f b3 16 b4 3f 44 c8 07 be
       0.18893388 0.95225537 1.4069427 -0.13259989
000010 2b 0d 81 3e f7 c9 bc be 37 9a d1 3e ad 84 b5 3b
       0.2520536 -0.36872837 0.4093797 0.005539498
000020 2a 61 a3 be 4b 80 8a bd af 49 28 3f e5 34 d9 3e
       -0.31910068 -0.06762751 0.6573743 0.42423168
000030 45 c4 61 3e 5b 01 fa be 6e 14 e8 be c9 ca 91 3e
       0.22047527 -0.4882916 -0.45328087 0.28475025
000040 2e a6 14 bf 46 03 96 3e 01 31 3b 3e ad ce a8 be
       -0.5806607 0.29299372 0.18280412 -0.3297018
000050 ad fb 56 3e e1 83 33 3c db 4c c8 3e 93 a6 57 3e
       0.20994444 0.010956735 0.39121136 0.21059637
000060 03 66 26 3f 48 dc 46 3f 3d 85 a7 3f 14 b8 6e 3e
       0.6499941 0.7767987 1.3087536 0.23312408
000070 96 cc 19 be eb 0b 11 be 01 9a 5f 3f 05 88 86 3f
       -0.1501945 -0.14164703 0.87344366 1.051026
000080 ab 7f 91 3f f4 1b ea 3d 0b c4 a9 3c f3 0f 89 bd
       1.1367086 0.11431113 0.020723363 -0.06692495
000090 85 a8 17 3f 73 84 7e 3f ae b5 cc 3f d6 82 c5 3c
       0.59241515 0.9942085 1.5992944 0.024110239
0000a0 f9 0c 0e be e1 ac 1a 3e d2 1e 0f bd f6 ee bd 3e
       -0.13872136 0.1510501 -0.034941502 0.37096375
0000b0 9a 26 e3 be b0 2b 4f be 1c d5 90 be 55 52 2e 3f
       -0.44365388 -0.20231509 -0.2828759 0.6809438
0000c0 51 a5 71 be 05 fb df be 76 09 78 be b5 91 0f 3f
       -0.2359822 -0.437462 -0.24222359 0.56081706
0000d0 c9 b5 9a be b0 43 f5 be 8e c8 b0 be 0a da a6 be
       -0.30216816 -0.47903204 -0.3452801 -0.32588226
0000e0 63 8b 92 be 9f 7e 0b 3d ee 68 12 3e 47 ee 25 be
       -0.2862197 0.034056302 0.1429784 -0.16204177
0000f0 12 4e bc 3e 19 f2 44 be 5c 1b 65 be 3a a4 1a 3e
       0.36778313 -0.19232978 -0.22373718 0.1510171
000100 eb c3 12 3f a5 87 19 be f5 13 bb be 98 dd c0 3e
       0.573302 -0.1499315 -0.36538664 0.37669063
000110 23 bd 87 3d a5 e3 d5 be a9 72 54 3e 3f fe 46 3f
       0.06627872 -0.41775241 0.20746864 0.777317

sequential/dense_1/MatMul f4 [1, 12]
000000 e6 b5 ae bf 49 c5 bc 3e 2c 68 27 bf 97 20 27 3f
       -1.3649261 0.36869267 -0.6539333 0.65284103
000010 87 6a fa bf bf 1f e8 bf a1 6e e3 bf c1 db b9 3e
       -1.956376 -1.8134688 -1.7768136 0.3630047
000020 87 45 6f be 8f 72 1c bf 18 70 c7 3e b8 1d 01 3f
       -0.23366366 -0.611123 0.38952708 0.5043597
