outputs/forecast_model.tflite (tflite, 2088 bytes, 2 tensors)

sequential/dense_1/MatMul i1 [1, 12] scale=0.015404535 zero_point=0
000000 a7 18 d6 2a 81 8a 8d 18 f1 d8 19 21
       -1.3710036 0.36970884 -0.6469905 0.6469905 -1.956376 -1.8177352 -1.7715216 0.36970884 -0.23106803 -0.61618143 0.3851134 0.50834966

sequential/dense/MatMul i1 [12, 6] scale=0.01259287 zero_point=0
000000 0f 4c 70 f5 14 e3 21 00 e7 fb 34 22 12 d9 dc 17
       0.18889305 0.95705813 1.4104015 -0.13852157 0.2518574 -0.36519322 0.41556472 0.0 -0.31482175 -0.06296435 0.6548292 0.42815757 0.22667165 -0.49112192 -0.4533433 0.28963602
000010 d2 17 0f e6 11 01 1f 11 34 3e 68 13 f4 f5 45 53
       -0.57927203 0.28963602 0.18889305 -0.3274146 0.21407878 0.01259287 0.39037895 0.21407878 0.6548292 0.7807579 1.3096584 0.23926453 -0.15111443 -0.13852157 0.868908 1.0452082
000020 5a 09 02 fb 2f 4f 7f 02 f5 0c fd 1d dd f0 ea 36
       1.1333582 0.113335826 0.02518574 -0.06296435 0.5918649 0.9948367 1.5992944 0.02518574 -0.13852157 0.15111443 -0.03777861 0.36519322 -0.44075045 -0.20148592 -0.27704313 0.68001497
000030 ed dd ed 2d e8 da e5 e6 e9 03 0b f3 1d f1 ee 0c
       -0.23926453 -0.44075045 -0.23926453 0.5666791 -0.30222887 -0.47852907 -0.34000748 -0.3274146 -0.28963602 0.03777861 0.13852157 -0.1637073 0.36519322 -0.18889305 -0.22667165 0.15111443
000040 2e f4 e3 1e 05 df 10 3e
       0.57927203 -0.15111443 -0.36519322 0.3777861 0.06296435 -0.41556472 0.20148592 0.7807579
