outputs/forecast_model.tflite (tflite, 2104 bytes, 2 tensors)

sequential_2/dense_5/MatMul i1 [1, 12] scale=0.008907818 zero_point=0
0	0x15	0.18706419
1	0x2d	0.40085182
2	0xad	-0.7393489
3	0x46	0.62354726
4	0x0d	0.11580164
5	0xba	-0.62354726
6	0x2d	0.40085182
7	0x18	0.21378765
8	0x19	0.22269545
9	0xd4	-0.391944
10	0xb7	-0.65027076
11	0x81	-1.1312929

sequential_2/dense_4/MatMul i1 [12, 6] scale=0.008116537 zero_point=0
0	0x2f	0.38147724
1	0x1f	0.25161263
2	0xba	-0.56815755
3	0xe4	-0.22726303
4	0x47	0.5762741
5	0x53	0.67367256
6	0x2e	0.3733607
7	0xf4	-0.097398445
8	0xfc	-0.032466147
9	0x47	0.5762741
10	0x26	0.3084284
11	0x2a	0.34089455
12	0x6b	0.8684694
13	0x31	0.3977103
14	0x36	0.43829298
15	0xe8	-0.19479689
16	0x06	0.048699223
17	0x16	0.1785638
18	0xe8	-0.19479689
19	0xef	-0.13798113
20	0xfe	-0.016233074
21	0xf2	-0.11363152
22	0xf5	-0.0892819
23	0x59	0.72237176
24	0xef	-0.13798113
25	0x3d	0.49510875
26	0xc2	-0.50322527
27	0x23	0.28407878
28	0x47	0.5762741
29	0xf2	-0.11363152
30	0x41	0.5275749
31	0x4d	0.62497336
32	0x27	0.31654492
33	0x10	0.12986459
34	0xe4	-0.22726303
35	0xf3	-0.10551498
36	0xbd	-0.543808
37	0x1c	0.22726303
38	0xd3	-0.36524415
39	0xef	-0.13798113
40	0x38	0.45452607
41	0xe6	-0.21102996
42	0xc9	-0.44640952
43	0x06	0.048699223
44	0x03	0.024349611
45	0x63	0.80353713
46	0x18	0.19479689
47	0x39	0.4626426
48	0xb1	-0.6412064
49	0x1e	0.2434961
50	0xe9	-0.18668035
51	0x14	0.16233073
52	0x28	0.32466146
53	0x62	0.7954206
54	0xcb	-0.43017644
55	0xeb	-0.17044728
56	0x17	0.18668035
57	0x0b	0.0892819
58	0xca	-0.43829298
59	0x2d	0.36524415
60	0x7f	1.0308002
61	0x40	0.51945835
62	0x32	0.40582684
63	0xdf	-0.26784572
64	0xe9	-0.18668035
65	0x3a	0.47075912
66	0x46	0.56815755
67	0x55	0.68990564
68	0x1c	0.22726303
69	0x05	0.040582683
70	0xe8	-0.19479689
71	0x14	0.16233073
