outputs/forecast_model.tflite (tflite, 2104 bytes, 2 tensors)

sequential_3/dense_7/MatMul i1 [1, 12] scale=0.008470193 zero_point=0
00000000: 08ef bc81 f3cd 248c 4932 9231
0.06776154 -0.14399327 -0.5759731 -1.0757145 -0.1101125 -0.43197984 0.30492693 -0.98254234
0.61832404 0.42350963 -0.9317212 0.41503942

sequential_3/dense_6/MatMul i1 [12, 6] scale=0.007282126 zero_point=0
00000000: 07ed f700 d2d9 0314 c516 f000 314a 7af2
00000010: 45c1 6267 1e33 1ac7 d6e0 2536 b11e c6ea
00000020: dccc c506 b8d1 a755 1648 4844 0fe8 16f8
00000030: bc2e 272c 5843 db00 0341 c1b8 f14a 7f15
00000040: 03da d2c2 e80a de32
0.050974883 -0.1383604 -0.06553914 0.0 -0.3349778 -0.28400293 0.021846378 0.14564252
-0.42964545 0.16020678 -0.11651402 0.0 0.3568242 0.53887737 0.8884194 -0.10194977
0.50246674 -0.45877394 0.7136484 0.750059 0.2184638 0.37138844 0.18933529 -0.4150812
-0.3058493 -0.23302804 0.26943868 0.39323482 -0.575288 0.2184638 -0.4223633 -0.16020678
-0.26215655 -0.37867057 -0.42964545 0.043692756 -0.5243131 -0.34225994 -0.64810926 0.6189807
0.16020678 0.5243131 0.5243131 0.49518457 0.1092319 -0.17477103 0.16020678 -0.05825701
-0.49518457 0.3349778 0.28400293 0.32041356 0.6408271 0.48790246 -0.26943868 0.0
0.021846378 0.47333822 -0.45877394 -0.5243131 -0.1092319 0.53887737 0.92483 0.15292466
0.021846378 -0.2767208 -0.3349778 -0.45149183 -0.17477103 0.07282126 -0.24759229 0.3641063
