outputs/forecast_model.tflite (tflite, 2088 bytes, 2 tensors)

sequential/dense_1/MatMul i1 [1, 12] scale=0.009549431 zero_point=0
00000000: 2c97 1a1c 9331 2bca e981 1a4b
0.42017496 -1.0026902 0.24828519 0.26738405 -1.040888 0.4679221 0.41062552 -0.5156692
-0.2196369 -1.2127777 0.24828519 0.71620727

sequential/dense/MatMul i1 [12, 6] scale=0.0074919816 zero_point=0
00000000: 0a02 c2fa 713a 714c 71d6 28f7 b4ef c43c
00000010: f0f1 c0c2 c03d 1e02 5f20 4c28 dff2 b9c8
00000020: 1004 14f2 c213 1b30 cec4 c1de 1dba 2b11
00000030: 15cb c419 d90e 7f09 683c d3e9 32b0 23db
00000040: 5bca 18d6 0c6a e61c
0.07491982 0.014983963 -0.46450287 -0.04495189 0.8465939 0.43453494 0.8465939 0.5693906
0.8465939 -0.31466323 0.29967928 -0.06742784 -0.5693906 -0.12736368 -0.4495189 0.4495189
-0.119871706 -0.11237972 -0.47948682 -0.46450287 -0.47948682 0.45701087 0.22475944 0.014983963
0.7117382 0.23974341 0.5693906 0.29967928 -0.24723539 -0.10488774 -0.5319307 -0.41955096
0.119871706 0.029967926 0.14983964 -0.10488774 -0.46450287 0.14234765 0.2022835 0.35961512
-0.37459907 -0.4495189 -0.47199485 -0.25472736 0.21726747 -0.52443874 0.3221552 0.12736368
0.15733162 -0.39707503 -0.4495189 0.18729953 -0.29218727 0.10488774 0.95148164 0.06742784
0.7791661 0.4495189 -0.33713916 -0.17231558 0.37459907 -0.59935856 0.26221937 -0.27720332
0.6817703 -0.404567 0.17980756 -0.31466323 0.08990378 0.79415005 -0.19479153 0.20977548
