outputs/forecast_model.tflite (tflite, 2044 bytes, 3 tensors)

sequential/dense/BiasAdd/ReadVariableOp f4 [12]
000000 90 d1 cc 3e 81 0e a0 bc 25 3a aa 3d 02 fa 5e 3e
       0.40003633 -0.019538166 0.083118714 0.21775058
000010 30 b0 52 3f c3 0b b5 3e 05 11 2a 3f eb 8d 03 be
       0.8230009 0.35360536 0.6643222 -0.12847106
000020 46 1c 98 be 4e 5e 6f 3f 3e 04 90 3f 5d 72 54 be
       -0.2970907 0.9350327 1.1251295 -0.20746751

sequential/dense/MatMul f4 [12, 6]
000000 b0 f8 18 3f d1 4f 26 3f e0 e5 bc bd db 88 02 3e
       0.59754467 0.6496554 -0.09223533 0.12747519
000010 d3 eb a9 be 43 43 87 be 00 89 05 3e bb b0 33 3d
       -0.33187732 -0.26418504 0.13040543 0.043869715
000020 7b 0a 1c bf 9f 75 4c 3f fe 51 28 3f 6f 9b b3 bd
       -0.6095349 0.79866976 0.6575011 -0.08769881
000030 8e 23 c9 3e 6e 03 6d be 73 f7 f8 be ec 25 92 bc
       0.3928494 -0.2314584 -0.4862629 -0.017840348
000040 0e 71 1c 3f 1b 85 50 3f ad 0e 15 bf ab 35 1e bf
       0.6111001 0.814531 -0.5822552 -0.6180064
000050 21 d8 94 3e 78 45 ac be 9c 0a fe 3e 3e 2a f9 bc
       0.29071143 -0.3364675 0.4961747 -0.03041565
000060 62 d4 a0 3e 0c a7 e1 3e 02 95 99 3f ae ee b2 be
       0.31412035 0.4407276 1.1998599 -0.34947723
000070 80 f6 00 3f 16 3b 30 be c0 d9 16 3f 89 21 59 3e
       0.5037613 -0.1721004 0.5892601 0.21204199
000080 b9 b2 9e 3d 1a 89 12 bd bb 5e 20 3e cc 68 ff bd
       0.077489324 -0.03577528 0.15661137 -0.1247116
000090 0f b0 da 3e 31 82 30 3e a3 0e 7a 3f 0b 44 dd 3e
       0.42712447 0.17237164 0.97678584 0.43215975
0000a0 95 30 69 be 67 36 7b be 58 bf 14 bf 83 32 b8 3e
       -0.22772439 -0.24532472 -0.5810447 0.35976037
0000b0 2f 74 9b 3e 27 6a 8e 3e 8b 08 aa 3d b3 92 3d 3f
       0.3036208 0.27815363 0.08302411 0.7405197
0000c0 dc 12 9c be d2 19 bc be 47 e4 16 3e bd 14 03 be
       -0.3048314 -0.3673845 0.14735518 -0.1280088
0000d0 e5 6d 92 bd aa 88 47 3e 4f 0b 50 3f e1 0b 53 3f
       -0.07149867 0.19485727 0.81267256 0.8244
0000e0 2f 26 22 3f 6e c7 9e 3d 74 08 02 be 99 3f 6a 3d
       0.63339514 0.07752882 -0.12698537 0.057189558
0000f0 1a 73 91 3f 83 1d 31 3f 29 6a 7e 3f 93 b7 8e 3e
       1.1363251 0.69185656 0.9938074 0.2787443
000100 48 8a b2 3c f3 d5 85 be 9d 23 e2 be 63 b8 a8 3e
       0.021794453 -0.26139793 -0.44167796 0.32953176
000110 a0 c4 32 3e 0b 63 ff be a9 dd d1 bd ef 5c a6 3e
       0.17457819 -0.4988025 -0.102473564 0.32492778

sequential/dense_1/MatMul f4 [1, 12]
000000 b7 6f 21 be 72 de b5 3e af 69 8f 3e 09 ce d2 3e
       -0.15765272 0.35521275 0.28010318 0.41172817
000010 d6 0d 84 bf 56 8b 85 bf 26 c3 ba bf 11 e0 4f 3f
       -1.0316722 -1.0433147 -1.4590805 0.81201273
000020 39 56 25 bf 85 ec 11 bf ed 3c 48 bf 5e 5e f8 3e
       -0.6458469 -0.57001525 -0.78217965 0.48509496
