outputs/forecast_model.tflite (tflite, 2088 bytes, 2 tensors)

sequential/dense_1/MatMul i1 [1, 12] scale=0.010664164 zero_point=0
000000 24 81 12 26 0a 9a 1c 2e d1 f3 b0 a2
       0.3839099 -1.3543489 0.19195496 0.40523824 0.10664164 -1.0877447 0.2985966 0.49055156 -0.5012157 -0.13863413 -0.85313314 -1.0024314

sequential/dense/MatMul i1 [12, 6] scale=0.007984159 zero_point=0
000000 f0 4c d7 f4 7d 6d 3a 04 65 01 2a d0 e1 dd eb 5e
       -0.12774654 0.606796 -0.3273505 -0.09580991 0.9980198 0.8702733 0.4630812 0.031936634 0.8064 0.007984159 0.33533466 -0.38323963 -0.24750891 -0.27944556 -0.16766733 0.75051093
000010 6d 36 e9 09 b9 cd 10 32 0b 2c 28 ed f2 30 36 46
       0.8702733 0.43114457 -0.18363565 0.07185743 -0.5668753 -0.40719208 0.12774654 0.39920792 0.087825745 0.35130298 0.31936634 -0.151699 -0.11177822 0.38323963 0.43114457 0.5588911
000020 4b 25 ef e4 15 2e fa 49 ce ff ef fd ea fb 45 de
       0.59881186 0.29541388 -0.1357307 -0.22355644 0.16766733 0.3672713 -0.047904953 0.5828436 -0.39920792 -0.007984159 -0.1357307 -0.023952477 -0.17565149 -0.039920792 0.55090696 -0.2714614
000030 79 61 7f dd fe 21 42 ca cc e4 0d e1 34 71 60 fd
       0.96608317 0.77446336 1.0139881 -0.27944556 -0.015968317 0.26347724 0.5269545 -0.43114457 -0.41517624 -0.22355644 0.10379406 -0.24750891 0.41517624 0.90220994 0.76647925 -0.023952477
000040 ec 11 01 55 54 d4 1f 06
       -0.15968317 0.1357307 0.007984159 0.6786535 0.6706693 -0.35130298 0.24750891 0.047904953
