outputs/forecast_model.tflite (tflite, 2044 bytes, 3 tensors)

sequential/dense/BiasAdd/ReadVariableOp f4 [12]
1.1462406 -0.21628898 0.5563901 0.0732286 -0.1739394 0.907555 -0.22271183 0.44002345
0.27177018 0.793042 0.01482702 -0.22992368
00000000: 03b8 923f dc7a 5dbe 956f 0e3f e0f8 953d
00000010: 2c1d 32be 8655 683f 920e 64be c14a e13e
00000020: 7625 8b3e cd04 4b3f 07ed 723c 1d71 6bbe

sequential/dense/MatMul f4 [12, 6]
1.2403485 1.2676603 0.30293342 -0.2921943 0.065319546 0.15321793 -0.25799623 0.39305848
-0.3738821 -0.4204986 -0.3721077 0.17842895 0.8818064 0.011078202 0.29863504 0.2657858
-0.065990314 -0.2815493 0.002400953 -0.6422337 0.29517415 0.14843738 0.43983835 0.020314872
-0.28570968 -0.29520166 -0.00039618858 -0.29102138 0.094532855 -0.23237465 0.44980404 0.47887304
1.2480937 -0.4480117 0.43099928 -0.05749152 -0.38024798 -0.24749406 0.3771522 -0.41611546
-0.42232066 -0.066278666 0.16374692 0.26689836 0.58017206 -0.08698171 -0.015518812 0.08118617
-0.1544573 0.30962694 0.44879565 -0.450961 0.4905737 -0.48133397 0.7100867 0.54550093
0.6337336 -0.025420917 0.32313782 -0.34178865 -0.011917312 -0.07529781 -0.09591065 0.37347114
0.76136506 0.68777007 -0.36163604 0.4429819 -0.4275893 -0.041628867 0.31682903 -0.27212217
00000000: bdc3 9e3f b142 a23f 171a 9b3e 7e9a 95be
00000010: 41c6 853d 29e5 1c3e 1518 84be f63e c93e
00000020: 7a6d bfbe 984b d7be e784 bebe 14b6 363e
00000030: 10be 613f 5981 353c b1e6 983e 1415 883e
00000040: ee25 87bd 3b27 90be 4f59 1d3b 6e69 24bf
00000050: 1121 973e f8ff 173e 7e32 e13e 606b a63c
00000060: 8a48 92be ac24 97be 88b7 cfb9 c100 95be
00000070: 719a c13d 9ff3 6dbe b74c e63e d92e f53e
00000080: 89c1 9f3f ca61 e5be f0ab dc3e 3a7c 6bbd
00000090: ddaf c2be 156f 7dbe 181a c13e 160d d5be
000000a0: 6a3a d8be 1cbd 87bd 46ad 273e e7a6 883e
000000b0: 2886 143f 7723 b2bd 9e42 7ebc ef44 a63d
000000c0: 0e2a 1ebe 6c87 9e3e 8bc8 e53e 5ce4 e6be
000000d0: 7a2c fb3e 6871 f6be 3ec8 353f f3a5 0b3f
000000e0: 5d3c 223f 873f d0bc 5272 a53e ecfe aebe
000000f0: d440 43bc bd35 9abd ce6c c4bd 9c37 bf3e
00000100: d2e8 423f b311 303f 5c28 b9be 86ce e23e
00000110: fcec dabe 0883 2abd 6a37 a23e 9953 8bbe

sequential/dense_1/MatMul f4 [1, 12]
-0.8791841 0.5823353 -1.0493726 0.7760114 -0.40604284 -1.0300545 0.3537106 -0.67769575
-0.236488 -1.1344358 0.4632499 -0.634865
00000000: 3612 61bf ed13 153f d751 86bf afa8 463f
00000010: d9e4 cfbe d3d8 83bf 8e19 b53e 787d 2dbf
00000020: e929 72be 3135 91bf 172f ed3e 8386 22bf
