outputs/forecast_model.tflite (tflite, 2088 bytes, 2 tensors)

sequential/dense_1/MatMul i1 [1, 12] scale=0.0069607757 zero_point=0
0	0x41	0.45245042
1	0xb7	-0.50813663
2	0x33	0.35499957
3	0x9a	-0.70999914
4	0x35	0.3689211
5	0x41	0.45245042
6	0x32	0.3480388
7	0x2f	0.32715645
8	0x21	0.2297056
9	0x5f	0.6612737
10	0x81	-0.88401854
11	0x1f	0.21578404

sequential/dense/MatMul i1 [12, 6] scale=0.0065832958 zero_point=0
0	0xdd	-0.23041534
1	0x26	0.25016522
2	0x1a	0.17116569
3	0xd8	-0.26333183
4	0xea	-0.1448325
5	0xec	-0.13166592
6	0xfc	-0.026333183
7	0x71	0.7439124
8	0x7f	0.8360786
9	0xe7	-0.1645824
10	0x02	0.0131665915
11	0x03	0.019749887
12	0xf9	-0.04608307
13	0xc3	-0.40158105
14	0xee	-0.118499324
15	0xe0	-0.21066546
16	0x39	0.37524787
17	0x3a	0.38183117
18	0x7e	0.82949525
19	0x22	0.22383206
20	0x23	0.23041534
21	0x36	0.35549796
22	0xe7	-0.1645824
23	0xb4	-0.50033045
24	0xe6	-0.17116569
25	0xe5	-0.17774898
26	0xae	-0.53983027
27	0xec	-0.13166592
28	0x0b	0.07241625
29	0x09	0.059249662
30	0xff	-0.0065832958
31	0xf3	-0.085582845
32	0x34	0.34233138
33	0xfa	-0.039499775
34	0x37	0.36208126
35	0x21	0.21724877
36	0xef	-0.11191603
37	0xb2	-0.51349705
38	0xe9	-0.1514158
39	0x31	0.3225815
40	0x08	0.052666366
41	0x3e	0.40816432
42	0xf9	-0.04608307
43	0xaa	-0.5661634
44	0xe1	-0.20408216
45	0x0d	0.085582845
46	0xe3	-0.19091558
47	0x2b	0.2830817
48	0x15	0.13824922
49	0xcd	-0.33574808
50	0xda	-0.25016522
51	0xf9	-0.04608307
52	0xe7	-0.1645824
53	0x4e	0.51349705
54	0xbf	-0.42791423
55	0xe5	-0.17774898
56	0x10	0.10533273
57	0x29	0.26991513
58	0x3c	0.39499775
59	0x0a	0.06583296
60	0x6c	0.7109959
61	0xd2	-0.3028316
62	0x6a	0.69782937
63	0xcf	-0.3225815
64	0xca	-0.35549796
65	0x3c	0.39499775
66	0xe0	-0.21066546
67	0x1a	0.17116569
68	0xf8	-0.052666366
69	0xe4	-0.18433228
70	0xe0	-0.21066546
71	0x28	0.26333183
