outputs/forecast_model.tflite (tflite, 2104 bytes, 2 tensors)

sequential_1/dense_3/MatMul i1 [1, 12] scale=0.010242927 zero_point=0
0	0x94	-1.1062361
1	0xe6	-0.2663161
2	0x81	-1.3008517
3	0xf3	-0.13315804
4	0x1d	0.29704487
5	0xd9	-0.39947414
6	0xfa	-0.06145756
7	0x8c	-1.1881795
8	0x34	0.5326322
9	0xf1	-0.1536439
10	0xd3	-0.46093172
11	0x3c	0.6145756

sequential_1/dense_2/MatMul i1 [12, 6] scale=0.0067610717 zero_point=0
0	0xfd	-0.020283215
1	0x64	0.67610717
2	0x67	0.6963904
3	0x10	0.10817715
4	0xde	-0.22987644
5	0x17	0.15550464
6	0x06	0.04056643
7	0xc9	-0.37185895
8	0x04	0.027044287
9	0x9f	-0.65582395
10	0x22	0.22987644
11	0x38	0.37862003
12	0x51	0.5476468
13	0xee	-0.12169929
14	0x4f	0.5341247
15	0x16	0.14874358
16	0xef	-0.11493822
17	0xf9	-0.047327504
18	0x23	0.23663752
19	0x2f	0.31777036
20	0x11	0.11493822
21	0xcd	-0.34481466
22	0xe6	-0.17578787
23	0x55	0.5746911
24	0x1b	0.18254894
25	0xb0	-0.54088575
26	0xbe	-0.44623074
27	0x7f	0.8586561
28	0x71	0.76400113
29	0x4c	0.51384145
30	0x72	0.7707622
31	0xe4	-0.18931001
32	0x7c	0.8383729
33	0xc3	-0.41242537
34	0x34	0.35157573
35	0xe9	-0.15550464
36	0x06	0.04056643
37	0xdb	-0.25015965
38	0x41	0.43946967
39	0xc9	-0.37185895
40	0x18	0.16226572
41	0x3b	0.39890322
42	0x13	0.12846036
43	0xee	-0.12169929
44	0x7e	0.85189503
45	0x1a	0.17578787
46	0xea	-0.14874358
47	0xf3	-0.08789393
48	0xfe	-0.0135221435
49	0x1a	0.17578787
50	0xda	-0.25692073
51	0xbc	-0.4597529
52	0x47	0.48003608
53	0xc9	-0.37185895
54	0xc8	-0.37862003
55	0x52	0.5544079
56	0xbe	-0.44623074
57	0xd9	-0.2636818
58	0x39	0.3853811
59	0xef	-0.11493822
60	0x55	0.5746911
61	0x13	0.12846036
62	0x61	0.65582395
63	0xc5	-0.39890322
64	0xc0	-0.4327086
65	0x44	0.4597529
66	0x01	0.0067610717
67	0xc0	-0.4327086
68	0x02	0.0135221435
69	0x45	0.46651396
70	0x41	0.43946967
71	0x54	0.56793004
